assets/models/pxrf_model.tflite (tflite, 5784 bytes, 5 tensors)

arith.constant f4 [1, 16]
000000 e6 f2 db be 90 d3 ea 3e cb be b6 3d 9f 40 85 3e
       -0.42958754 0.45864534 0.089231096 0.26025864
000010 fe dd c6 3e a6 ba b5 be cb b9 09 bf 42 6c a3 3e
       0.38841242 -0.35493964 -0.5379912 0.31918532
000020 1f 41 0d bf 2e 96 97 3e 00 5c 82 bc 46 9d 92 be
       -0.5517749 0.29606766 -0.01591301 -0.28635615
000030 cb 1d 60 bc 22 aa b0 3d 9a 40 fb be e3 a9 3b 3d
       -0.013678978 0.086262 -0.49072725 0.045816313

arith.constant1 f4 [16, 32]
000000 1c a7 9e bd f9 21 16 be b2 e9 42 be 00 f6 3e ba
       -0.07746717 -0.14661397 -0.1903446 -0.00072845817
000010 70 29 70 bd 6f 6f 5b be 01 53 96 3e 7e 94 a6 be
       -0.058633268 -0.21429227 0.29360202 -0.32535166
000020 0b 29 87 be 91 20 b3 3e c0 df 69 3c 35 3f 91 3e
       -0.263985 0.34985784 0.014274538 0.28368536
000030 3d 28 35 be a8 bb 84 bd 2c 5e 1d be 63 9e 85 3e
       -0.17691131 -0.06481105 -0.15367955 0.26097402
000040 42 ad 74 3e 68 5b 96 bd 3c de 6b be 4e ec 69 3e
       0.23894218 -0.07341653 -0.23033994 0.2284405
000050 48 20 3e 3d 42 64 62 3e 86 64 67 3e e0 4d 98 bd
       0.046417505 0.22108558 0.2259694 -0.074367285
000060 ea e0 59 be 38 16 24 bd 28 e8 77 be fa 33 45 3e
       -0.21277204 -0.040060252 -0.24209654 0.19258109
000070 80 21 28 3d 23 e1 8a 3e 98 5a 0e 3d 17 1a a4 3e
       0.041047573 0.2712489 0.034754366 0.32051155
000080 02 70 6c be 83 1f 80 3e 13 7f 10 be 40 04 62 3d
       -0.23089603 0.25024042 -0.14110975 0.055179834
000090 6a b8 7d 3e 95 4f 59 be 97 8c 33 be b0 6c b6 3c
       0.2477738 -0.21221764 -0.175341 0.022268623
0000a0 80 84 30 bb a8 24 c6 3d 70 9e 5f be f6 83 92 be
       -0.0026934445 0.096749604 -0.21837783 -0.28616303
0000b0 b9 03 72 be 4c 25 88 bd fc 8f 0b 3e 1c 7c be bd
       -0.23634233 -0.06647739 0.13629144 -0.09301016
0000c0 60 1a a5 bd 00 67 5a 3b 2a e9 29 3e f0 65 5e be
       -0.08061671 0.0033325553 0.16592851 -0.21718574
0000d0 88 27 87 3d 2f 5a 73 be 82 5c 41 3e 96 01 54 3e
       0.06599337 -0.23764871 0.18882945 0.2070373
0000e0 f0 99 a8 3d 10 b1 eb bc 20 16 49 be 50 4d 1c bd
       0.08232486 -0.028770953 -0.19637346 -0.03815967
0000f0 4e 3c 88 be d0 ff fb 3c 38 f5 20 3d 10 35 d9 bd
       -0.2660851 0.03076163 0.03929636 -0.10605824
000100 67 c1 9d be 80 ab 14 3d f4 54 b3 be a0 1b 3f be
       -0.30811617 0.036296368 -0.35025752 -0.18662882
000110 7b 90 b8 3e f4 40 af bd 3e 37 6f 3e 1d c8 91 3c
       0.3604773 -0.08557311 0.23360917 0.017795617
000120 71 a5 a8 3e 0a 42 5c 3e d0 07 1f be 18 84 8a 3d
       0.32938722 0.21509567 -0.15530324 0.06763476
000130 41 51 6e 3d 65 09 ee bd 86 85 57 3e 69 db 91 bd
       0.05818296 -0.116228856 0.21047029 -0.07121927
000140 22 f8 05 3e 2a df 27 3e 48 e9 af bd 97 ff aa 3e
       0.13082936 0.16393724 -0.08589417 0.33398125
000150 b1 6b 7d bd b1 a0 87 3e 8c b5 d7 3d 6e 89 6a be
       -0.06187028 0.26489785 0.10532674 -0.22903988
000160 3a 55 7d be 48 4d 82 bd 1b 2b 6a 3e 98 db a2 3d
       -0.24739543 -0.063623965 0.22868006 0.079520404
000170 86 53 00 3e d0 c3 71 bd 73 0e 93 3e 9a b7 25 3e
       0.12531862 -0.059024632 0.2872196 0.1618332
000180 44 eb 10 3d 4f 84 54 be 9e 69 74 3e 37 63 d7 bd
       0.035380617 -0.20753597 0.23868415 -0.105169706
000190 58 53 5e 3e af fc 5a be 6c 54 dd bd b9 02 b0 3e
       0.2171148 -0.21385454 -0.10807118 0.34377077
0001a0 6d 22 dd 3d 66 69 36 3e b5 41 8e 3e 76 e8 65 be
       0.10797582 0.17813644 0.27784505 -0.22451958
0001b0 8a c8 85 3e 1f 36 31 bd 70 df 94 3c 99 c9 9e bc
       0.26129562 -0.043264505 0.01817295 -0.019383239
0001c0 a0 14 eb bc 8e df 3a 3e 27 1a 8f 3e b6 07 4a be
       -0.028696358 0.18249342 0.2794964 -0.19729504
0001d0 99 62 6a be a1 d4 9c 3e 63 90 34 be c8 7b 1a bd
       -0.22889175 0.30630973 -0.17633204 -0.037715703
0001e0 1a 0b 3d 3e 46 2c 71 be 1e 89 b6 bd 62 1b b0 be
       0.18461266 -0.23552045 -0.08912872 -0.3439589
0001f0 44 1c d3 ba 6e 2d 3a 3e eb 9e 19 3d 98 ea 94 3d
       -0.0016106446 0.18181393 0.03750507 0.07271308
000200 c4 bc 9e bd 60 87 aa bc f4 a8 d4 3d e4 90 8f be
       -0.07750848 -0.020816505 0.10383788 -0.2804023
000210 aa aa 5c 3e 11 8a 9d 3e c4 f5 98 bd c0 2c 37 3d
       0.21549478 0.307694 -0.07468751 0.04472041
000220 c8 0d 3c 3d 91 13 26 be fc 16 e7 3d 90 9c f8 bd
       0.04591158 -0.16218401 0.11283681 -0.12139237
000230 94 94 85 be 98 ab 83 be ca 2a 7b be 5b 91 28 be
       -0.2608992 -0.25716853 -0.24528041 -0.16461699
000240 4a 1f 07 be 96 c0 32 3e d2 4e 4a be fd 3f 3e be
       -0.1319553 0.17456278 -0.1975663 -0.18579097
000250 75 f3 50 be 48 c1 f8 bd 48 cf c3 bd ec fd af bd
       -0.20405371 -0.121462405 -0.0956102 -0.08593354
000260 28 94 81 be 94 87 8f be c4 8a b5 bd 00 2f db 3d
       -0.25308347 -0.28033125 -0.08864358 0.10702324
000270 b9 a1 8e 3e d8 48 01 bd c0 80 ba 3c 86 4f 36 3e
       0.2785776 -0.03156361 0.02276647 0.17803773
000280 f1 ac a2 be 80 81 45 3d f7 46 ad 3e e5 fd 16 3e
       -0.3177257 0.048219204 0.33843204 0.1474529
000290 9f 7b c3 bd 60 8d 1d 3d b6 49 43 3e 84 c5 75 be
       -0.09545063 0.038464904 0.19071087 -0.24001127
0002a0 d8 03 70 3e 30 00 78 bd e9 e2 65 3e b0 0f 60 3e
       0.23438966 -0.060547054 0.2244984 0.21880984
0002b0 f7 29 0d be 14 76 ae bd 0c c9 c3 3d f0 f4 81 3d
       -0.1378554 -0.08518615 0.09559831 0.06345546
0002c0 c0 cd 81 bb 7e d3 aa be 6b 21 05 be 07 71 78 be
       -0.003961295 -0.3336448 -0.13001029 -0.24261867
0002d0 f5 16 82 bd e3 7c 8a 3e 2a 98 66 3e b8 86 8a be
       -0.06352035 0.27048406 0.22518983 -0.27055907
0002e0 20 39 49 be b0 27 f8 bc 2f f3 e1 bc 8a b7 6b be
       -0.19650698 -0.030292362 -0.02758178 -0.23019233
0002f0 38 c4 0f 3e 16 8e 4a 3e 35 a6 1c 3e ce 07 72 3e
       0.14039695 0.19780764 0.15297778 0.2363579
000300 7f 95 a9 3e be d0 71 be 70 94 cf 3d 80 0c dc bd
       0.3312187 -0.23614785 0.10135734 -0.10744572
000310 62 6a 6d be 64 d4 98 3d cb 00 42 be 87 f1 28 be
       -0.23185113 0.07462385 -0.18945615 -0.16498385
000320 23 fe 37 3e 2d d2 97 3e b9 8d 93 3e 49 65 1d be
       0.17968039 0.2965254 0.28819063 -0.15370668
000330 45 b3 7a 3e 2c c1 06 3e ad 49 2c be 86 5f c3 bd
       0.24482448 0.13159627 -0.1682498 -0.09539704
000340 a2 a9 6a 3e 36 85 6e 3e 68 4c 20 bd 00 38 a7 3a
       0.22916272 0.23293003 -0.039135367 0.0012757778
000350 4e e0 a3 be 1e 2c ff bd 24 9b 18 be 2e 88 8c be
       -0.32007068 -0.124595866 -0.14902931 -0.27447647
000360 ff aa 05 be f6 6e 7a be 82 d4 b7 bd b8 bb db 3d
       -0.13053511 -0.2445639 -0.089760795 0.10729164
000370 7e 97 5d bd c0 72 68 3d b2 3f 58 3e ae 35 a7 be
       -0.054099552 0.05675006 0.21118048 -0.32658142
000380 20 b9 da 3c b7 cb 97 be 2d 52 a0 3e 50 09 f8 3c
       0.026699603 -0.2964761 0.31312695 0.030277878
000390 9f 88 a1 be 52 6b 21 3e 65 49 b1 3e 50 ed b2 bd
       -0.31549546 0.15763596 0.34626308 -0.0873667
0003a0 1c a6 87 bd f2 c1 8f be a0 e0 8d 3d e0 3b 08 3c
       -0.0662348 -0.28077656 0.069276094 0.008315057
0003b0 b7 45 5f be 2a 0c 69 3e bb 7b a1 3e 10 09 6a 3d
       -0.21803938 0.22758546 0.3153971 0.05713755
0003c0 fc 52 a7 3d 92 65 23 3e 6a 9c 7b 3e 6e 4a ef bd
       0.08170125 0.15956715 0.24571386 -0.11684118
0003d0 f8 5c 95 3d 72 7a 6b 3e 2d 1c b3 3e 24 fe a4 3d
       0.07293123 0.22995928 0.34982434 0.08056286
0003e0 49 64 96 be 48 c6 ac be 79 20 7a be 82 f4 6b 3e
       -0.29373387 -0.33745027 -0.2442645 0.23042491
0003f0 74 0a a9 bd 10 71 cb bc 26 32 6d 3e dc bb a7 3d
       -0.08253947 -0.024834186 0.23163661 0.08190128

arith.constant3 f4 [16]
000000 00 00 00 00 00 00 00 00 47 b0 07 3d 3f 4f 11 3d
       0.0 0.0 0.033127096 0.035475966
000010 00 00 00 00 a6 87 23 bc cb cf 16 bd 00 00 00 00
       0.0 -0.009981072 -0.03681926 0.0
000020 ba 54 ab bb 00 00 00 00 00 00 00 00 d1 53 ab bb
       -0.005228606 0.0 0.0 -0.0052284976
000030 95 c1 37 bd a1 51 08 3d 7d 44 18 bd b4 c6 f6 3c
       -0.04486235 0.033280972 -0.03717469 0.030124046

sequential_1_1/dense_3_1/BiasAdd/ReadVariableOp f4 [32]
000000 18 80 28 bd 00 00 00 00 00 00 00 00 9c 9f 46 bc
       -0.041137785 0.0 0.0 -0.012123015
000010 37 23 00 3d 00 00 00 00 00 00 00 00 0d e4 a8 bb
       0.031283583 0.0 0.0 -0.005154139
000020 e3 90 3d bc 00 00 00 00 93 b2 1c bd f8 50 79 bd
       -0.011570188 0.0 -0.03825624 -0.060868233
000030 4a 89 f0 bc 61 03 11 bd 00 00 00 00 a3 a6 5a bd
       -0.02936234 -0.035403613 0.0 -0.053381573
000040 00 00 00 00 00 00 00 00 00 00 00 00 00 00 00 00
       0.0 0.0 0.0 0.0
000050 d7 80 08 3d 00 00 00 00 00 00 00 00 00 00 00 00
       0.033325996 0.0 0.0 0.0
000060 00 00 00 00 00 00 00 00 0b a9 bf 3c 00 00 00 00
       0.0 0.0 0.023396036 0.0
000070 27 22 d2 bc 00 00 00 00 3c 8d 28 bd 00 00 00 00
       -0.02565105 0.0 -0.041150317 0.0

sequential_1_1/dense_3_1/MatMul f4 [32, 11]
000000 f3 34 b0 bd 57 65 93 3d 47 b0 8b 3e 05 66 38 3e
       -0.08603849 0.071970634 0.27282926 0.18007667
000010 d9 26 09 3d 05 8d 1c 3e d9 6c dd bd ba c4 37 3e
       0.033484314 0.1528817 -0.10811777 0.17946139
000020 a8 27 66 3e 79 5a 55 3e 47 b1 68 3d e0 06 2e 3d
       0.22476065 0.20835294 0.05680969 0.042487025
000030 58 71 b1 3d e4 31 78 be e4 ee a1 3d 77 42 bc be
       0.08664197 -0.24237782 0.07906893 -0.3676946
000040 34 75 43 3e a8 1c 97 bd 50 fc 4d bd 80 26 05 3b
       0.19087678 -0.073785126 -0.050289452 0.0020317137
000050 e0 aa 0d bd 30 60 c6 3c 38 53 1e be fc 88 88 be
       -0.034586787 0.024215788 -0.15461433 -0.2666701
000060 c3 01 bc be 48 50 01 be 47 e3 10 be 00 36 4d 3e
       -0.36720094 -0.12628281 -0.141492 0.2004013
000070 97 f6 95 be 30 31 54 be f8 31 d6 3d 24 f7 82 bd
       -0.29289696 -0.20721889 0.104587495 -0.063947946
000080 48 97 4a bd 44 5a a8 3e a5 53 1b be b8 a7 05 bd
       -0.04946068 0.32881367 -0.15168627 -0.032630652
000090 65 41 7f bd 78 83 23 be 1f e7 04 3c f3 ce 02 3e
       -0.062318224 -0.1596812 0.008111744 0.12774257
0000a0 c8 2d fe bd 45 fa a5 3e 5d c9 98 ba ed 42 af be
       -0.12411076 0.32417503 -0.0011656691 -0.34230748
0000b0 d3 d9 bc 3e d6 cc 13 be 1e 0d 04 3e d6 69 71 bc
       0.36884937 -0.14433607 0.12895629 -0.014734706
0000c0 6f ab 94 bd e6 3d 4f 3e 33 4d 8f be db 58 09 be
       -0.07259261 0.20238456 -0.27988586 -0.13412802
0000d0 ce 22 c0 be f1 aa b3 3e d6 42 86 3c ac 5d 0a 3e
       -0.37526554 0.35091355 0.016389292 0.13512295
0000e0 28 00 51 3d 30 b5 c3 3c 80 4a 5f bb 58 af 66 3e
       0.05102554 0.023890108 -0.0034071505 0.22527826
0000f0 34 45 33 be b0 ef ed 3c 5c b4 97 3e 30 49 61 3e
       -0.17506868 0.029044956 0.2962979 0.22000575
000100 08 2f 58 bd 48 df 3a bd 00 d5 b4 3e 89 5a 10 be
       -0.052779227 -0.045623094 0.35318756 -0.14097036
000110 40 5a 6c 3e 30 44 89 be 23 af 69 be c4 e3 90 3d
       0.23081303 -0.26809835 -0.22820716 0.07074693
000120 0c e9 7b 3e d0 48 fd 3c 04 fc b4 bd 48 d5 a4 be
       0.24600619 0.030918509 -0.08837131 -0.3219397
000130 28 46 42 3d e1 ba a6 bd 1a 6f 0c be b0 56 8c be
       0.047430187 -0.08141113 -0.13714257 -0.27409887
000140 04 f5 3a be a8 1b 6f be e8 26 79 be 51 78 56 3e
       -0.18257529 -0.23350394 -0.24331248 0.20944335
000150 d5 6b dc bc 22 a9 6f be 10 0e b3 3e e7 f6 21 3e
       -0.026906887 -0.23404363 0.34971666 0.15816842
000160 17 38 0e 3e ba 1f 2e be dc b3 51 be 0e 22 c0 be
       0.13888584 -0.1700429 -0.20478767 -0.37525982
000170 f8 b9 20 3e a6 1c 8b 3e 5a 81 70 3e 2a be 1b 3e
       0.15695941 0.27170295 0.23486844 0.1520926
000180 d3 e1 6d 3d 6d 62 f8 3d 28 be 83 be 1c 7b 4c 3e
       0.05807669 0.12128148 -0.25731015 0.19968837
000190 08 89 4a be 30 09 aa 3d 84 20 c1 3d a2 02 9d be
       -0.19778836 0.083025336 0.0943003 -0.3066607
0001a0 2c db b0 bd c2 a1 ae 3e 7c c5 b4 be c9 7c 54 be
       -0.08635554 0.34107786 -0.3530692 -0.20750727
0001b0 20 7e db bc 18 0d f4 3d 9d c7 e8 3d 25 56 4c 3e
       -0.02679354 0.1191656 0.11366198 0.19954737
0001c0 02 c2 a3 be 38 0e c4 be f9 87 65 bd f7 09 2f 3e
       -0.31983954 -0.38292098 -0.056037877 0.17093645
0001d0 07 94 33 3c 66 d7 60 3e d0 cd 9d 3e 98 1e a7 3e
       0.010960585 0.21957168 0.30821085 0.3264053
0001e0 40 bc 11 3e 4c dd 3d 3e bc 27 0e be b8 84 f3 bd
       0.14231968 0.1854145 -0.13882345 -0.118905485
0001f0 8f 40 2d be e3 61 88 3e c5 5b a4 be 06 8a 96 3e
       -0.16919158 0.26637182 -0.32101265 0.2940218
000200 0b de 80 3e 3a 0c 92 be 34 24 73 3e 9a 00 91 3e
       0.25169405 -0.28524953 0.23744279 0.2832077
000210 e0 4f 0c 3e 97 31 80 3e 53 2b b2 be 6a c2 d9 bd
       0.13702345 0.25037834 -0.3479868 -0.10632785
000220 b1 f8 a2 be 71 02 b3 be 83 e7 0e 3d 00 dc b9 bc
       -0.3183036 -0.349628 0.034888756 -0.022687912
000230 b9 91 b7 bc a9 71 0a 3e 6d 2c 7e 3e e0 8d 47 3e
       -0.022408353 0.1351992 0.24821635 0.19487715
000240 af e8 af 3d c7 87 57 be 0c 12 14 be d1 f2 cc bd
       0.08589303 -0.21047889 -0.1446001 -0.10007251
000250 52 50 56 3e 8e 53 32 be 12 f7 bb be 10 c1 16 bb
       0.20929077 -0.17414686 -0.36711937 -0.0023003258
000260 06 31 93 3e d3 3f 0d 3e b5 29 6e be 2b 96 73 be
       0.2874834 0.13793878 -0.23258097 -0.23787753
000270 7c 6a e7 bd 7d 55 b7 be 51 43 ac be 60 42 29 bc
       -0.11299607 -0.3580741 -0.33645108 -0.010330766
000280 49 f7 b8 be b7 94 a6 be 58 e2 38 be 82 f0 97 be
       -0.36126164 -0.32535335 -0.18055093 -0.2967568
000290 40 aa ea 3c 49 a6 8f 3e fe 28 66 bd 18 f3 4a 3e
       0.028645635 0.28056553 -0.056191437 0.19819295
0002a0 e0 41 27 3e 63 4f 8f 3e e1 14 88 3e 3a da 88 be
       0.16333723 0.27990255 0.2657843 -0.26728994
0002b0 3b c2 e7 3d 60 bd 38 bc 18 86 b1 3d 43 c0 9b be
       0.113163434 -0.011275619 0.086681545 -0.30420122
0002c0 20 48 bf bd c8 e8 07 bd c7 b4 0f be c8 59 c8 3d
       -0.093399286 -0.033180982 -0.14033805 0.097827494
0002d0 06 fd 29 be a0 c2 19 3e 58 77 50 3e 68 ff a5 bd
       -0.16600427 0.1501565 0.20358026 -0.081053555
0002e0 97 75 2d be 19 18 b5 be 53 79 49 be 30 5f ea bd
       -0.16939388 -0.35369948 -0.19675188 -0.11443937
0002f0 dc 26 9e bd dc f9 ee bd aa 4d 87 be 43 e5 30 be
       -0.077222556 -0.11668751 -0.2642644 -0.17274956
000300 20 31 fe 3d c0 80 aa 3c 62 5a 80 3e 2a c7 80 3e
       0.124117136 0.020813346 0.25068957 0.2515195
000310 e0 d2 33 bd 20 a5 72 3d d2 4c b2 be 98 ff 6d 3d
       -0.043902278 0.059239507 -0.34824234 0.05810508
000320 a8 cd f9 3d 80 9f 26 3b 30 27 99 3e b4 5f b9 be
       0.12197429 0.002542466 0.2991271 -0.36205828
000330 8b bd 19 be 7c 3a 88 3e e6 70 8f be c0 bd 7a bc
       -0.15013711 0.2660712 -0.28015822 -0.015304029
000340 52 1e bd be e4 d1 83 3d 48 f5 c3 bd 8c 6f 60 3e
       -0.36937195 0.06436518 -0.09568268 0.21917552
000350 3a 80 b0 3e 90 64 a2 3d 4c ff 3b 3e 58 e6 61 3e
       0.3447283 0.07929337 0.18359107 0.22060525
000360 14 ff 82 3d 10 ff e8 bc 64 f4 04 be f4 5c 92 3e
       0.063963085 -0.028441936 -0.12983853 0.28586543
000370 03 07 50 be 70 18 a2 3e dd 5d bb 3d 9e 3e 91 be
       -0.20315175 0.3165927 0.091487624 -0.28368086
000380 f2 fb 1f 3e 9b 5e f8 bd c6 d6 ab 3e 55 e2 8e bd
       0.15623453 -0.121274196 0.33562297 -0.06976763
000390 49 d9 a5 3e b3 f5 bd 3d 08 b3 cf 3e f9 4e 8f be
       0.32392338 0.09275379 0.40566278 -0.2798994
0003a0 14 2e 2d be 70 3b cd 3d 42 bf 1b be bc fd ab be
       -0.16912109 0.100211024 -0.15209678 -0.3359202
0003b0 78 a0 36 be da 4f 93 3e 67 c3 49 be ec 01 4e 3e
       -0.17834651 0.2877186 -0.19703446 0.2011792
0003c0 42 a1 13 be c4 93 a1 3e 78 53 2c 3e f0 32 c8 bc
       -0.14416984 0.3155805 0.16828716 -0.024438351
0003d0 7a e7 9e be 6c 9b 43 3e 80 27 1f bc 79 1d a2 be
       -0.31035978 0.19102257 -0.009714007 -0.3166311
0003e0 bc 13 b1 3e 5e 46 a4 3e fe f0 8a be 59 28 b9 be
       0.3458537 0.32084936 -0.27136987 -0.36163595
0003f0 b2 fa 92 3e 58 bb 39 3e 94 f9 88 bd 10 53 b8 bd
       0.2870689 0.18137872 -0.06688228 -0.09000218
